…
     "name": "stdout",
     "output_type": "stream",
     "text": [
      "Generator input dim:  53\n",
      "Dicrimination input dim:  4\n",
      "Model: \"discriminator\"\n",
      "_________________________________________________________________\n",
      " Layer (type)                Output Shape              Param #   \n",
      "=================================================================\n",
      " input_1 (InputLayer)        [(None, 4)]               0         \n",
      "                                                                 \n",
      " dense (Dense)               (None, 64)                320       \n",
      "                                                                 \n",
      " leaky_re_lu (LeakyReLU)     (None, 64)                0         \n",
      "                                                                 \n",
      " dropout (Dropout)           (None, 64)                0         \n",
      "                                                                 \n",
      " dense_1 (Dense)             (None, 64)                4160      \n",
      "                                                                 \n",
      " leaky_re_lu_1 (LeakyReLU)   (None, 64)                0         \n",
      "                                                                 \n",
      " dropout_1 (Dropout)         (None, 64)                0         \n",
      "                                                                 \n",
      " dense_2 (Dense)             (None, 1)                 65        \n",
      "                                                                 \n",
      "=================================================================\n",
      "Total params: 4,545\n",
      "Trainable params: 4,545\n",
      "Non-trainable params: 0\n",
      "_________________________________________________________________\n",
      "Model: \"generator\"\n",
      "_________________________________________________________________\n",
      " Layer (type)                Output Shape              Param #   \n",
      "=================================================================\n",
      " input_2 (InputLayer)        [(None, 53)]              0         \n",
      "                                                                 \n",
      " dense_3 (Dense)             (None, 64)                3456      \n",
      "                                                                 \n",
      " leaky_re_lu_2 (LeakyReLU)   (None, 64)                0         \n",
      "                                                                 \n",
      " batch_normalization (BatchN  (None, 64)               256       \n",
      " ormalization)                                                   \n",
      "                                                                 \n",
      " dense_4 (Dense)             (None, 64)                4160      \n",
      "                                                                 \n",
      " leaky_re_lu_3 (LeakyReLU)   (None, 64)                0         \n",
      "                                                                 \n",
      " dense_5 (Dense)             (None, 1)                 65        \n",
      "                                                                 \n",
      "=================================================================\n",
      "Total params: 7,937\n",
      "Trainable params: 7,809\n",
      "Non-trainable params: 128\n",
      "_________________________________________________________________\n"
     ]
    }
   ],
   "source": [
    "cgan = ConditionalGAN(noise_dim=50,\n",
…
